checkpoint.pth (torch_old, 316421 bytes, 6 tensors)

fc1.weight f4 [256, 48]
00000000: a77d 63bc 4bd8 a6bd 4ac0 03bb 768b 523c
00000010: 584d 4ebc cb13 a83c 5aa2 e63c 5ff5 44bd
00000020: 2415 963d 8c45 02be b916 9fbc 2e7b 703d
00000030: 5db7 f9bb f6ba 043d 96e3 463d 22ee 7c3d
00000040: 6655 22bd 6801 eabd 5f60 793c 59fb 8f3c
00000050: 6c36 f3bc 65cd d73d e123 683d 1ab5 c93d
00000060: 87ae 04bd 743e 1cbd 3fb6 393d ff74 6e3c
00000070: b746 6f3d 0c2c ae3d d7e3 9d3c f890 2b3d
00000080: fe02 97bc 44b3 e23c c3c2 553d 92cf d83c
00000090: 43f9 953d 7056 c43d 6f54 51bd e3e9 773d
000000a0: fc0a af3c e5c3 d5bc acda c5bc ae2c ea3b
000000b0: cf98 4f3d 4da2 173e ee19 dfbc 4239 633d
000000c0: 1bed c23c df94 9dbd ffc5 103d bdd8 31bd
000000d0: b2e8 163d 6a67 883d aa9c e53b 9ede adbd
000000e0: 9887 8d3d 27d1 07be c872 c73c 197a ee3c
000000f0: d1a2 6dbd 3e58 9c3d db34 6fbc ba56 63bc
00000100: 7950 a0bb 673c 93bd 8053 07bd 82ff 5e3d
00000110: 3c78 9bbd 5ccf e63d 2d2d 943d df61 5cbc
00000120: 23fa 44bd 83ab 3bbd 320f b4bb c2ba 3abd
00000130: f1ad 5a3b aab4 f23c 98fe 303d 0bce 373d
00000140: be4d 1b3c 4272 e9bc 5f06 14bd 1495 093c
00000150: 5cce 14ba 1ee7 333d e932 353d 7b8c eabc
00000160: 6a17 0d3d d7b1 b1bd c1bc 003d 4030 25bd
00000170: 922e aa3d 2d00 273e 9db5 03bc 18c3 663d
00000180: 9f69 8bbc 3831 22be dcff 9dba e221 88bc
00000190: 9e69 2f3d e412 51bd ab94 a23d 3cad b5bd
000001a0: fd11 723d 0f6d 98bd 8136 6fbd 261f 6abd
000001b0: 73cd a23a 0b51 10bd d7ee d93c ad23 ccbc
000001c0: cef2 043d 791a 33be 99d1 f0bc fd07 673d
000001d0: 0adc 27bd 277c 263d edfa 31bc dcdd 583c
000001e0: 908e 9cbd c707 893b 1e13 12bd 5442 403c
000001f0: 1e7f 993c 619d bbbc d112 ca3c e20a 433c
00000200: 7f42 083b 4b10 a1ba d53d 863d a9e4 b63b
00000210: 31d1 c03c bae0 9e3d 13b9 9a3d 9446 95bd
00000220: d6ac bfbd 06a0 92bb 3771 d6bb e336 18bd
00000230: 9014 3d3d a258 943d 894c 09bd af7a 76bd
00000240: 0e94 063c 062a 3cbb 9817 40bd 29a5 c2bc
00000250: dd2c 2a3d b2c5 0bbc d118 01bc 2823 fd3c
00000260: 97d4 4cbd eacc 8f3d 318a 643d 29a9 51bd
00000270: bd64 c6bb 947e 533d 1fa6 253d 756f 9bbd
00000280: db36 8abd 6b39 6e3d 141a a6bc 2b36 c0bd
00000290: 25de 34bd 5956 95bd b6a2 46bc 6efc 1abd
000002a0: e3a5 1abd 7350 2f3d 2e5d 04bc 2a9d 523d
000002b0: a7ec 65bd f631 19bd 566f 473d 44a1 cbbc
000002c0: 6c7d 65bd 73f7 00bd 6fc7 a1bc 4299 233c
000002d0: adae 63bd 0730 2b3c 90c0 f3bb b412 4a3d
000002e0: a6a6 5a3c 0006 6d3d 3817 58bd bd03 f9bc
000002f0: 2350 6e3d 8788 2cbd d741 81bc 9860 f63a
00000300: 32ad 97bd c990 c33c 6b47 e03c 5fb8 5d3d
00000310: 7ac8 4cbd fb2a 02b9 53b8 e83c 8da3 673d
00000320: ae03 38bc d127 f53d f5a5 1b3c 90ae 02bd
00000330: 2ab5 3a3d 5c2b 88bc 2f2b 72bd 9f34 ab3b
00000340: 3a9b 2dbd 7723 5d3b ea6a 943d c034 b5bd
00000350: 5b2c 7b3b cf7a c0bd d0d7 ba3b b432 cbbd
00000360: afb3 413d e3b9 52bd e7d0 a33d 0a2f c2bd
00000370: c803 11bd 4817 173d efa3 3fbc 9081 e1bd
00000380: 6ec2 6ebd 6043 c4bd 5949 46bd 9da9 b0bd
00000390: 96c5 6b3c 005c 96bd edad 36bd d0a2 703c
000003a0: 2463 83bd bc8f e6bc d1b3 853d d457 33bd
000003b0: 39ef 45bd 21cb e1bd 456c b8bc e702 75bd
000003c0: 25cb 8d3d 63c8 90bd 7d09 a4bc c425 afbd
000003d0: 5eb9 01bb 9e5f 9a3d 35b6 643d 2d6d aebd
000003e0: 6e2b e33c 9788 19be be3c 943d a6e6 253d
000003f0: 6f31 edbc 1cdf a33d 8d10 d5bc cd43 87bc
-0.013884938 -0.08146723 -0.0020103627 0.012850633 -0.012591682 0.02051725 0.028153587 -0.048085567
0.07328251 -0.12721843 -0.019420015 0.058711223 -0.0076207356 0.032404862 0.048556887 0.06175054
-0.039632224 -0.114260495 0.015220731 0.017575907 -0.029689036 0.10537223 0.05667484 0.098489955
-0.032393005 -0.038145497 0.04533982 0.014554261 0.05841705 0.08504495 0.019273682 0.0418863
-0.018434044 0.027673371 0.052187692 0.026466165 0.073229335 0.09586799 -0.051105913 0.060525786
0.021367542 -0.026094386 -0.024152122 0.0071464395 0.05068284 0.14808007 -0.027234044 0.055474527
0.023794701 -0.076944105 0.035345074 -0.04341959 0.03684301 0.0666035 0.007007201 -0.084897265
0.06910628 -0.13263379 0.024346724 0.029110955 -0.058016602 0.07634018 -0.014600004 -0.013875658
-0.0048924056 -0.07189255 -0.033038616 0.05444289 -0.07591292 0.112700194 0.07235179 -0.013451069
-0.04809011 -0.045817863 -0.0054949755 -0.045588262 0.0033367837 0.029627163 0.04321155 0.044874232
0.009478984 -0.028496865 -0.03613889 0.008397359 -0.0005676502 0.043921582 0.044238005 -0.02863144
0.034446158 -0.086764984 0.03143001 -0.040329218 0.08309664 0.16308661 -0.008038905 0.0563384
-0.017018137 -0.15839088 -0.0012054401 -0.01661772 0.042825334 -0.051043406 0.079385124 -0.088709325
0.059099186 -0.07442676 -0.05840159 -0.05715861 0.0012420848 -0.03523354 0.026603146 -0.024919355
0.03245812 -0.17490567 -0.029396819 0.056404103 -0.04098133 0.040645745 -0.010863048 0.013236489
-0.07644379 0.0041818353 -0.035662763 0.011734564 0.018737372 -0.022902193 0.024667175 0.01190445
0.0020791588 -0.0012288181 0.06554762 0.0055814576 0.02353725 0.07757707 0.07554831 -0.07288852
-0.09359138 -0.0044746427 -0.006544258 -0.03716172 0.046162188 0.07243468 -0.033520255 -0.060175594
0.00821401 -0.0028711571 -0.0468975 -0.023760395 0.04154669 -0.008531021 -0.007879452 0.030900553
-0.05000743 0.07021506 0.055795852 -0.051186714 -0.0060544894 0.051634386 0.04044163 -0.07589618
-0.06748744 0.058160227 -0.020276107 -0.09385332 -0.044157166 -0.0729186 -0.012123754 -0.037838392
-0.03775586 0.04280133 -0.008078856 0.051419415 -0.056133892 -0.037401162 0.048690163 -0.02485717
-0.056027815 -0.031485986 -0.019748418 0.00998527 -0.055586506 0.010448462 -0.0074387267 0.049334243
0.013345396 0.05786705 -0.052756518 -0.03039729 0.058181893 -0.04212239 -0.015778465 0.0018797098
-0.07406081 0.02387275 0.027377805 0.054130908 -0.049995877 -0.00012413778 0.028408205 0.05655246
-0.011231346 0.11970485 0.009500016 -0.031904757 0.045582928 -0.016622238 -0.059123214 0.005224779
-0.042384364 0.0033743063 0.07246955 -0.08847952 0.0038325998 -0.09398424 0.0057019964 -0.0992178
0.0472905 -0.051446807 0.07998829 -0.09481628 -0.035403997 0.036887437 -0.0116968 -0.1101104
-0.05829089 -0.09583163 -0.048409794 -0.08626101 0.01439037 -0.07341766 -0.044599462 0.014687255
-0.06415394 -0.02814471 0.06528438 -0.04378493 -0.048323844 -0.11025072 -0.022512564 -0.05981722
0.06923512 -0.07069471 -0.020024056 -0.08552125 -0.0019794325 0.07537769 0.05583783 -0.085169174
0.02773067 -0.14993511 0.07238148 0.040503167 -0.028954236 0.08001539 -0.026008869 -0.016511822

fc1.bias f4 [256]
00000000: 6a04 d63b 7d17 f63d 602c 033e 7508 f53d
00000010: 6507 68bd f1fa b13d b99d 53bd 51c7 acbc
00000020: 8b57 6a3d 9de8 f4bd c094 73bd 433a c13d
00000030: 4588 19be fae6 61bb 5f84 c8bd 251c 093e
00000040: 3a11 0abe 0b18 7ebd 3bca adbd 638c efbd
00000050: a597 193e 97e2 b83d 05c9 e7bd c1f0 febd
00000060: 174f a3bc 25f9 d4bd ec81 083e 8138 2a3e
00000070: 0fd1 0abe 1028 3ebd a877 abbd 927d 663c
00000080: c59c 6a3d 836b ea3d b291 bf3d f03e 4d3d
00000090: 66eb d6bd c873 0a3e 2559 da3d ab9c 8abd
000000a0: 4193 7a3c e142 e4bb 5f2e 413d c263 2e3d
000000b0: d91d ddbc 772f 4ebb c627 af3d 1bec 9fbc
000000c0: d58d 57bd cc47 cb3c 1967 d33d 4ef3 6e3d
000000d0: 2afe 90bd e9da 123e 80ac dabc dcb9 54bd
000000e0: 8394 fe3d 683d aa3d c4ca 36bd b54c 11bc
000000f0: 5d94 0cbe 5e5a b0bb a829 133d 4668 8dbd
00000100: f93b 973d daba 003e dbe9 a03c 398a c8bd
00000110: b437 903d 8ef7 cd3d 5bee 18bd c84d c1bd
00000120: 6bfa 063c 3b59 38bd 20a3 df3d f106 043e
00000130: e407 283d 5a8d e83d 08ee c63d e4b1 d4bd
00000140: e147 523d 2587 02bd becf e2bd 06cc a23d
00000150: 6712 9bbd 6b4e 173e e8c3 98bd 4161 c63d
00000160: a3b6 fc3d 7cb6 c0bd 9543 a03c 6818 bbbd
00000170: b2aa c4bc 7de6 4b3c 4b53 79bd ffaf 903d
00000180: 4c63 f53d 78c8 bf3d da3c 89ba 9cb2 9ebd
00000190: b3be 773d 5166 923d fc92 01be 2e10 4dbd
000001a0: 8238 3b3b 3043 4abd 264c a63d b538 bbbd
000001b0: 086c 14bc 878a 063e 1ca5 dbbd 5233 e73c
000001c0: 50e2 073e bd82 aebd ebe0 c6bd 3f22 f73c
000001d0: f6a8 d2bd 53bd 47bd 3c37 d439 caf9 e13d
000001e0: deae 42bd 1ad7 dabd 8ba4 693d b69c cabb
000001f0: 1533 123e d546 d1bd b5d6 283e 2d1e c2bc
00000200: 1f01 123c 9ae8 943d 20ce 973c 3054 e03d
00000210: 599b 823d 1f04 6cbd 5bd8 16bc 2a0a 1f3b
00000220: 0758 fdbc cbec 8ebd 433f af3d 3628 3b3e
00000230: cdc9 f9bd c1de efbc 3653 5e3d 2fe8 8bbd
00000240: d4ce f9bd 76c1 3e3d e458 d53d 6fdd d8bd
00000250: b03d 51bd 36fc cd3d 3b9f b63d 91ee 3c3d
00000260: b61d 073e b99e dd3d 8e01 993d 2e00 9abd
00000270: 0da1 883c 6fc3 08bd 9c70 db3d 244a febd
00000280: ebf7 da3d 01a9 50bd 9313 c6bd 1150 7c3c
00000290: 3fc5 6c3c 896a e13c 7045 b53d 23c6 03be
000002a0: cdd6 ddbd 7940 0d3e e36d 2a3e eb3a fb3d
000002b0: b30a bebd 919c 2fbc 5954 d83d 0595 a43c
000002c0: f2cf 7e3d 44d0 8f3d 8824 2b3d b33f 723d
000002d0: d1b6 ac3c a51f 9f3d d920 96bd 49d8 163e
000002e0: e78b ae3d c6ff 28bb c77a 553d 3f9f f8bd
000002f0: af8e 91bb fa3e b23d 36d8 cd3d b632 203e
00000300: 52be ce3d b315 08be 6a35 4abd 5e01 85bc
00000310: 94d9 a0bd cc7f bfbd d0f2 103e 08af 803d
00000320: 1098 4b3d 47d7 0f3e c947 b7bd 3772 13be
00000330: 791f 1abb e826 0ebd 9502 1fbd 55b3 78bd
00000340: 55b9 afbc 41cd 133e 0421 38bd c430 d139
00000350: b772 093d a12f 423d 2dcb ff3d da1e 923d
00000360: 5648 18bd d32e 0d3e 7200 273d fed1 013e
00000370: 0846 b73d d69e d03d 9734 abbd 0ecc ec3c
00000380: 026d 193d 49af 9f3d daed d23d a154 cebd
00000390: bc16 623d b44e 32bd c15a 833c ff73 86bd
000003a0: 7026 273e f9e2 943d 9d2f d33d 272a 26bd
000003b0: 4e08 813d afc0 913c e37d f13d bf07 2f3d
000003c0: 7045 47bd b895 9c3d 7641 5c3d c4fc 0c3e
000003d0: a9e3 f33c f155 553b 3d2c a73d b51b 1d3d
000003e0: 8512 433d 4443 6b3d 9bcd fa3d 5616 043e
000003f0: 1c49 edbd 6afa 753c 9f37 06be 4d4b 49bd
0.006531288 0.12016199 0.12809896 0.11964504 -0.056647677 0.086904414 -0.051664088 -0.021091135
0.057212394 -0.1195843 -0.05946803 0.09434941 -0.14993389 -0.0034469948 -0.09790873 0.13389643
-0.13483134 -0.062034648 -0.08485838 -0.116966985 0.14999254 0.090275936 -0.11317638 -0.12448264
-0.019935174 -0.10399083 0.13330811 0.16623117 -0.13556312 -0.046424925 -0.08372432 0.014068024
0.057278413 0.114462875 0.09353961 0.05010885 -0.104941174 0.1352073 0.10661534 -0.06768163
0.015293897 -0.0069659804 0.047163364 0.042575605 -0.026991772 -0.0031461397 0.08552508 -0.019521764
-0.052625496 0.024814509 0.10322399 0.058337502 -0.07079728 0.1434132 -0.026693583 -0.05193506
0.1243067 0.083124936 -0.044626966 -0.008868386 -0.13728471 -0.0053818664 0.0359284 -0.06904654
0.07384486 0.12571278 0.019642761 -0.09791989 0.070418745 0.10056983 -0.03733669 -0.09438664
0.008238415 -0.04500697 0.109197855 0.12893273 0.04102315 0.11355086 0.097133696 -0.103854924
0.05133808 -0.031867165 -0.1107478 0.07949071 -0.07571869 0.14776008 -0.07459241 0.096865185
0.12339523 -0.09409806 0.019563476 -0.091355145 -0.024007175 0.012445089 -0.06087045 0.070648186
0.1198183 0.09364408 -0.0010470406 -0.07748911 0.0604846 0.071484216 -0.12653726 -0.05006426
0.0028567617 -0.04938048 0.08119993 -0.091416754 -0.00905896 0.13138781 -0.107248515 0.028222714
0.13269925 -0.0852103 -0.097108684 0.030167697 -0.10286133 -0.048764538 0.00040476944 0.110339716
-0.047530048 -0.106855586 0.057041686 -0.006183232 0.14277299 -0.10218588 0.16488154 -0.02369603
0.0089114 0.07270928 0.018530905 0.109535575 0.063772865 -0.057621118 -0.009206857 0.0024267533
-0.030925764 -0.069787584 0.08556988 0.18277058 -0.121966936 -0.029281022 0.054278575 -0.06831395
-0.121976525 0.046571217 0.10417345 -0.1058911 -0.05108422 0.10057871 0.089170896 0.046125952
0.13194928 0.108212896 0.07471 -0.075195655 0.016678357 -0.033389505 0.10714838 -0.12416485
0.10691818 -0.050942425 -0.09671702 0.015399949 0.014451324 0.02751662 0.08851135 -0.12868552
-0.108319856 0.13794126 0.16643481 0.12267097 -0.092793845 -0.010718481 0.10562963 0.02009059
0.06221003 0.070221454 0.041782886 0.05914278 0.021083267 0.077697076 -0.07330484 0.14730944
0.08522778 -0.0025787218 0.052119043 -0.12139749 -0.004442058 0.08703418 0.100510046 0.15644345
0.100948945 -0.13289528 -0.049367346 -0.016236003 -0.07854 -0.09350547 0.14155126 0.062833846
0.049705565 0.14046966 -0.08949239 -0.14399038 -0.0023517294 -0.034705073 -0.03882082 -0.0607179
-0.021450678 0.14433767 -0.04495336 0.0003989992 0.033556666 0.047408704 0.124899246 0.07134791
-0.03717836 0.13787393 0.04077191 0.12677762 0.08948904 0.101865456 -0.0835964 0.028905895
0.037457474 0.07797105 0.10299273 -0.100747354 0.055197462 -0.04353209 0.016034486 -0.06565093
0.16323256 0.07269854 0.10311816 -0.040567543 0.06300412 0.017792074 0.11791589 0.042731997
-0.048650205 0.07645744 0.053773366 0.13768297 0.029771643 0.0032552446 0.08162735 0.0383565
0.047625083 0.057437196 0.122462474 0.12899145 -0.1158621 0.015013317 -0.13107155 -0.049144078

fc2.weight f4 [256, 256]
00000000: ac2f ac3d 25a8 2d3d d43b c43d 6a96 e33b
00000010: 7a3f c63b 1849 ca3d 14b1 d4bc 9222 c0bd
00000020: d644 4bbd b5cf a53d f79b b03c 8a85 d83c
00000030: 7e89 0cbd 19e9 8a3d cc00 46bc 30ac 43bd
00000040: 8283 40bc 8b27 7c3d 6bc3 4bbd 5bb1 debc
00000050: 1a94 1c3d a649 79bd 8e3e d33c 6aec d63c
00000060: 1d74 1dbc 06a2 823b e368 9b3d 1c39 80bd
00000070: e1aa 72bd 43a6 4d3d 9b15 c8bc 851c 943c
00000080: 549d c9bd 1a57 703b 129e 17bd 492c a6bd
00000090: 9b46 4cbd fdb3 aabc 1a8c 203d c148 db3c
000000a0: 2b42 af3d f5c3 d53d 5eee 37bd 3aa7 2ebb
000000b0: 785d 073d 04a7 bb3d 3589 88bd 7e4b 753d
000000c0: a4ad 7fbc ac03 093d b66e a4bd b443 433c
000000d0: 0822 b93c dabd ed3c 2916 37bd 6ec1 68bc
000000e0: 08cb febc 73c1 643c 7d8b ed3b 04b0 34bd
000000f0: bc61 4f3d 013f 783d 513a 34bd c9c3 1bbb
00000100: 2b2c 2fbd bee7 3bbb 99ac ad3b 6822 313d
00000110: d7da 283c 917e e1bc 5862 f3bc d8b0 f93b
00000120: 5578 54bd 478e 883c 9885 c93d 6637 9fbb
00000130: e371 5abd 0e0b 70bd 327c 883d fc62 663c
00000140: 96ac a3bd af75 1dbd 9a9a 1dbb 25d6 493d
00000150: 7028 343d 1a17 e33b afe8 3abd e6fc 503d
00000160: ec73 38bd 3f77 7fbc 6606 4fbd 5824 8abd
00000170: 462a 8dbc 776a 963d 4c2b 20bd df26 71bd
00000180: d6e7 c33b 8795 29bc 68d6 9c3d 8111 433d
00000190: 3018 3e3d 4e76 2c3d 5b6f 55bd 70e5 2c3d
000001a0: 1de1 bcbb 31c6 403d 7771 1bbd e548 843c
000001b0: 2981 c8bc 1971 60bd 2ecb bcba d16f c6ba
000001c0: 30fb c7bd a6dc 423d 903c 55bc c2d7 05bd
000001d0: a0a9 da3c f105 693c 023a a2bd 50ef 833d
000001e0: 5037 06bd b237 973d 5a3d 06bd 8434 e93d
000001f0: b62d 7a3d 7d68 27bd 7e55 acbb 2dac 913c
00000200: 00bb 443d fcb6 393d dcbf 1dbb 987c 2d3c
00000210: e893 833d 5ed8 1c3c fcc0 473d b640 05bd
00000220: 6200 02bb 8392 9e3c 79b4 b13d 041c 9d3c
00000230: 51fd 063c 77cc b3bc df49 af3c a587 a4bd
00000240: 2d52 81bd 6334 71bb 28be ed3b be84 963c
00000250: d0d2 023d 7e53 8dbc 7192 0d3c f27b 7b3d
00000260: 71c0 2b3c 4522 96bc 419c b03c 2def 93bc
00000270: 3003 44bd 6ba0 ddbc 66ab 9cbd 0479 8abd
00000280: 5ea8 32bd 9e1e 11bd 4f83 2a3d ff86 12bd
00000290: a3da a33c f487 953d 7b65 b7bc 19ae 86bd
000002a0: 448c 35bc 5b8c 7f3c 3e26 a43d 513b 673b
000002b0: cfc2 293d 516e 8c3c 8b83 d83d 3614 7fbc
000002c0: 6c7f 073d 3f06 883d 162d 21bd 0552 ce3c
000002d0: 5875 32bc e549 4e3d db3a 57bd 84ce db3c
000002e0: 581b b0bc 12c2 0ebd de86 563d be0d 77bd
000002f0: a11f 3dbd 5e84 ab3c 9c4b f03c ecd0 4fbc
00000300: 0557 0fbd 4166 82bd 301c 9abc 5724 553d
00000310: 1a74 7cbd dfc3 48bd 8786 b3bc 14a3 7e3d
00000320: 48aa 263d 84b6 1d3d fb28 bebd 22ca 4fbd
00000330: 0f90 9cbc 067c 453d 2528 5bbd d8be bdbd
00000340: 5995 873d 415b 58bd fb04 15bd 74dd a2bc
00000350: 6b1e 623d ee7f 25bd b7e6 093d 5464 823c
00000360: 72a2 58bd 42b6 193c 1d7c 113d 47b9 b33c
00000370: 6f61 023d cb2f d63c 4fc0 23bd f8b8 47bd
00000380: 2deb 00bd 83c8 01bd 1030 ea3c 4e05 02bd
00000390: 42af d4bc f037 f1bb f4f4 9ebd 605f 5c3d
000003a0: 4d0c d6bc 3333 c6bc f858 013d 939a 863d
000003b0: eb4a 1d3c 2a67 483d 7cc7 a3bd 1d9e 9bbc
000003c0: c8ce 133d a604 b83c 7a4b 2fbd 1690 90bd
000003d0: 9073 7dbd a413 583c a6ab 9ebc e9bf 693d
000003e0: bf5b 7c3d 9255 0b3d bd78 9b3d 7645 603d
000003f0: d4ce 363d 8cc6 97bc 7a2f 97bc f2de 2bbd
0.0840753 0.042396683 0.09581724 0.006945421 0.0060500475 0.09877223 -0.025963344 -0.09381594
-0.049626194 0.080962576 0.021558745 0.026430864 -0.03431081 0.06782741 -0.012085151 -0.047771633
-0.011750104 0.06156115 -0.049746912 -0.027184179 0.03822718 -0.060861252 0.025786664 0.026235778
-0.009610203 0.0039866 0.07588365 -0.06260893 -0.059244994 0.050207388 -0.024424365 0.018080005
-0.09844461 0.003667301 -0.037015982 -0.081139155 -0.049872022 -0.020837778 0.03919611 0.02676809
0.085575424 0.104377665 -0.04490506 -0.0026649968 0.033048123 0.09162715 -0.06666795 0.059886448
-0.015605364 0.033450767 -0.08028929 0.011917997 0.022599235 0.029021192 -0.044698868 -0.0142062735
-0.031102672 0.0139621375 0.0072492943 -0.044113174 0.050630316 0.06060696 -0.044000927 -0.002376782
-0.04276673 -0.0028672065 0.0053001163 0.043245703 0.010306082 -0.027526172 -0.02970998 0.0076199584
-0.05187257 0.016669406 0.09839934 -0.004858899 -0.053331267 -0.058604293 0.066643134 0.014061686
-0.079919025 -0.03844231 -0.0024048449 0.04927649 0.043983877 0.006930244 -0.04563206 0.051022433
-0.045032427 -0.015592395 -0.05054321 -0.06745213 -0.017232072 0.07344525 -0.03910379 -0.05887496
0.0059785647 -0.0103505915 0.07658082 0.047624115 0.046409786 0.04210501 -0.05210815 0.042210996
-0.0057641403 0.04706401 -0.037950005 0.01614804 -0.02447565 -0.05479536 -0.0014403814 -0.0015139525
-0.09764707 0.047573708 -0.0130149275 -0.032676466 0.026692212 0.014222608 -0.0792122 0.064421296
-0.032767594 0.0738367 -0.032773353 0.1138697 0.06107875 -0.040871132 -0.005259215 0.017782295
0.0480299 0.045340523 -0.0024070656 0.0105887875 0.06424695 0.00957307 0.04876803 -0.032532416
-0.0019836654 0.019356972 0.086770006 0.019178398 0.008239106 -0.021948082 0.02139753 -0.08033685
-0.06314502 -0.0036804907 0.0072553344 0.018373843 0.031939328 -0.017251726 0.008640871 0.0613975
0.010482893 -0.018326888 0.021558883 -0.018058384 -0.047854602 -0.027054032 -0.07649879 -0.06761363
-0.0436176 -0.03542959 0.041629132 -0.035773274 0.020001715 0.073013216 -0.022387257 -0.06576175
-0.011080805 0.015597428 0.080151066 0.0035283158 0.04144555 0.017142447 0.10571965 -0.0155687835
0.033080503 0.06641816 -0.039349638 0.025185594 -0.010892235 0.05036344 -0.052546363 0.026831873
-0.021497414 -0.03485305 0.052374713 -0.06031584 -0.04617274 0.020937141 0.029332928 -0.012684088
-0.034995098 -0.0636716 -0.018812269 0.05203661 -0.06163416 -0.049014922 -0.021914734 0.062167242
0.040689737 0.03850414 -0.0928516 -0.05072988 -0.019111661 0.04821398 -0.05350508 -0.09264916
0.06620283 -0.0528214 -0.036381703 -0.019880988 0.05520479 -0.040405206 0.033667292 0.01591698
-0.052889295 0.009381833 0.035518754 0.021938933 0.0318312 0.026145836 -0.03997832 -0.048760384
-0.03147428 -0.031685364 0.028587371 -0.03174334 -0.025962476 -0.0073614046 -0.07761565 0.053801894
-0.026128912 -0.024194336 0.031578988 0.065724514 0.009600381 0.04892651 -0.07997033 -0.018996293
0.036085874 0.022463154 -0.04279659 -0.07058732 -0.061877787 0.013188276 -0.019368958 0.057067785
0.061610933 0.034017153 0.075913884 0.054753743 0.04463084 -0.018527292 -0.018455256 -0.041960664

fc2.bias f4 [256]
00000000: fd90 29bd 7538 1cbd 8399 a13c 41ef 3d3c
00000010: 4f21 b03c 46f6 3d3d 1166 90bc 89f2 cbbc
00000020: 1b63 52bd f0b3 2f3d 59e5 a5bc eef2 36bd
00000030: bf66 25bc 5915 103b 29d9 2abd 0463 4d3c
00000040: 1f8f 833d 913e b93b 17f5 123c ca62 4fbc
00000050: 4f51 15bd d492 5d3d 8dbd 213d a2e5 813c
00000060: 0254 6dbc f341 123d 096b 8a3c 3b1e e6bc
00000070: d2d4 54bd 983b dcbc 3a97 a73a 6b71 6bbc
00000080: 9f23 e53c 6894 063d 2f8c 05bd eb20 5bbd
00000090: a24b a43c a9dd 22bd d91a 143b 9aee 67bd
000000a0: 285f 16bd 453f 263d f7c8 47bd 02e7 4e3d
000000b0: c8c5 b6bc 7a49 de38 1012 a93c c948 473d
000000c0: 6e2b d93c b7bd 343d 2e96 2dbd d4ec 38bd
000000d0: c53c 8a3d 8adf 93bc cca8 30bb a2f4 00b9
000000e0: 205d 4a3d a6eb 2e3c d498 b6bc 7b32 693d
000000f0: 244d 933c 2346 2fbd b321 983a c403 23bd
00000100: d515 abbb a8e2 eabc f523 eebc 3bd5 12bd
00000110: ca3a 41bd 3a04 493b db01 5d3c f078 2abd
00000120: 68c1 58bc be87 843d 26b0 ddbc 04b1 bbbc
00000130: ba39 6c3d 0d04 ddbc 296c 82bd 882d 00bb
00000140: aa6a f73c 10c7 3abd a555 633b f561 f93c
00000150: 841d e93b fda6 23bd 1140 ffbb 5a53 493d
00000160: 1847 2abc 2dd2 833b 281f 313d 88a0 693d
00000170: a2cb 623d cf31 2c3d 081d 6e3d c5d7 7ebd
00000180: 103f 893d b570 603d 5490 143d 4eb8 563d
00000190: e6b2 1e3d 5e9c 31bd 6b35 563d bb50 4e3c
000001a0: 2c64 c9bc 8fe3 37bd f33d 773d 8473 61bd
000001b0: 41c2 37bd 1fa7 363d ef84 c53c 34cc 623d
000001c0: d508 0f3c 3502 e13c 0e4b a43c 5f5e 383d
000001d0: 0f30 133d f482 b13b 3b19 2c3d 822c f9bc
000001e0: 68cf 9c3d 479e 533c af40 84bd 284f 68bc
000001f0: 00ec 01bd 41ce ec3c aabb 4a3a 0d82 593d
00000200: a206 9dbc e549 06bc 5396 bf3c d845 44bd
00000210: 5ce6 073d ec5a ba3c e48f b53c ed95 1d3d
00000220: 2c4e 53bd f1d2 4dbd 8208 26bd f020 333d
00000230: e424 283b ac2d 08bc 94d7 debc 6e1f 763d
00000240: e033 713d f32c 103d ed5e 303c 118c 0dbd
00000250: e25d a43c 8b0d 9abc 97d7 88bd 0a3b f33c
00000260: c97b 2a3d 00fc 813d 6c05 023c 1e6b dd3c
00000270: 20ec 00bd ccbb 81bc 38db 2bbd 0a1e dc3b
00000280: ca39 eebc 6abb 453c 6918 c2bc 4feb a03d
00000290: 64f0 d13c 592b 853d 8105 d33c 9c67 1dbd
000002a0: 5f6e 7fbd 7d5e 893d 62d7 ee3c 1b5c 9e3c
000002b0: c835 943c 2810 17bd 263d b3bb 815d 0fbc
000002c0: 9ba2 8439 f286 653b 2cb5 e43c 3e0f 843d
000002d0: 4f40 f63c 007d 8bbc c2d8 e53c 6ba9 d6bc
000002e0: 423c 1fbc 9a5a 513c 7b52 873d dcd3 63bc
000002f0: 965f 733d 1388 54bd 38fa bfbc 16f6 62bb
00000300: 8920 243d 855b c9bc 40cb 1cbd b3a1 803d
00000310: fbea dbbc 0cde 223c 42f5 3f3d 5a05 11bc
00000320: 7239 66bc b829 ca3c 0ee2 743d 2d28 213d
00000330: 2631 68bd e9fe 893d 6437 9d3c c140 f23c
00000340: 9a8b 193d 15ec 15bc 8a35 d7bc 54f6 6e3d
00000350: 4aa0 c63c 95ba a23c 19f5 8c3d 18b9 76bc
00000360: 145a bebc b986 493d a26a 663d 8685 1dbd
00000370: b57a 533d 2353 3e3d 0e26 7fbd 8134 e03c
00000380: eb10 ba3c 3c01 093d c1c0 12bd 9eec f3bc
00000390: 5a75 10bd 1c48 b63c 9e2c a7bb f43a 763d
000003a0: 7c9f e83c c1f2 7f3d 61e6 1c3c 6360 4bbd
000003b0: d64b 333d 125e 913c 9588 463d 6dfc 093b
000003c0: f092 f8bc b577 dabc 9478 723b 816a 763d
000003d0: 759e d73c bc73 993c fc3f 543d cf80 9a3c
000003e0: cf7c 02bd 780e 243d 893d 01bd 7253 123d
000003f0: 243d 0e3d f5c5 49bd 9f31 12bc 8445 18bd
-0.041398037 -0.03813978 0.01972652 0.011592687 0.021500258 0.046377443 -0.017626794 -0.024895923
-0.051364046 0.04289621 -0.020250963 -0.04466527 -0.010095297 0.002198538 -0.041711006 0.012535814
0.064237826 0.0056532104 0.008969567 -0.0126578305 -0.036454495 0.054095104 0.03948741 0.015856568
-0.014485361 0.035707425 0.016896741 -0.028090587 -0.051960774 -0.026883885 0.0012786158 -0.014370303
0.027971087 0.032856375 -0.032604393 -0.05349819 0.020055596 -0.039762173 0.002259901 -0.056624033
-0.03671184 0.040587682 -0.04877564 0.050513275 -0.022311106 0.00010599471 0.020638496 0.048653398
0.026509967 0.04412624 -0.04237955 -0.045147732 0.06749872 -0.018050928 -0.002695608 -0.00012298164
0.049405217 0.0106763 -0.022289671 0.056932908 0.01798112 -0.042791497 0.0011606723 -0.039798513
-0.0052211084 -0.028672531 -0.02906988 -0.035847884 -0.047175206 0.0030672685 0.013489212 -0.04161924
-0.013229705 0.06471203 -0.027061533 -0.022911556 0.05767224 -0.02697947 -0.06368286 -0.0019558389
0.030202229 -0.045599997 0.00346885 0.030442217 0.0071141142 -0.039954174 -0.0077896197 0.049151756
-0.010392927 0.0040228576 0.043242604 0.05703786 0.05536998 0.04203969 0.058133155 -0.062217493
0.06701481 0.054794986 0.036270455 0.05242186 0.03874483 -0.043362014 0.052297037 0.01259249
-0.024583898 -0.04489475 0.060361814 -0.055041805 -0.04486299 0.044592973 0.02411124 0.055370525
0.008730133 0.027466873 0.02005532 0.045011874 0.035934504 0.005417222 0.04201625 -0.03041673
0.07656747 0.012916154 -0.0645765 -0.014179029 -0.031719208 0.028906943 0.00077336526 0.05310254
-0.019168202 -0.008196329 0.02338711 -0.04791817 0.033178672 0.022748433 0.022163339 0.03847306
-0.051588222 -0.050249998 -0.040535457 0.043732584 0.0025656754 -0.00831167 -0.027202405 0.060088567
0.058887362 0.035199117 0.01076482 -0.034557406 0.020064298 -0.018805286 -0.066817455 0.029691238
0.041621957 0.06346893 0.007935863 0.027028617 -0.031475186 -0.015836619 -0.04195711 0.006717448
-0.02908029 0.012068609 -0.02369328 0.078573816 0.025627322 0.065024085 0.02575946 -0.038428888
-0.062361117 0.06707475 0.029155437 0.019331029 0.018092051 -0.036880642 -0.005469936 -0.00875032
0.00025298152 0.003502306 0.02791842 0.0644822 0.030059962 -0.017027378 0.02805746 -0.026203832
-0.009718956 0.012777949 0.06607529 -0.013905492 0.05941733 -0.051887583 -0.023434743 -0.0034631542
0.04007009 -0.024579773 -0.03827977 0.06280842 -0.026845446 0.009940635 0.046864755 -0.008851374
-0.014051782 0.024678096 0.059785895 0.039344955 -0.056687497 0.067380734 0.019191451 0.029571893
0.03748665 -0.009150525 -0.026270647 0.058340386 0.024246354 0.01986436 0.06882686 -0.015058778
-0.023236312 0.049200747 0.056254037 -0.038457416 0.051630694 0.046466004 -0.06229215 0.027368786
0.022713145 0.033448443 -0.035828356 -0.029775914 -0.035268165 0.022251181 -0.0051017543 0.060114816
0.02839636 0.062487368 0.009576411 -0.04965247 0.043773495 0.017745052 0.0484701 0.0021054999
-0.030343503 -0.026668409 0.003699814 0.060160164 0.026320675 0.018731944 0.051818833 0.018860249
-0.031857308 0.04005286 -0.031552825 0.03572411 0.034726277 -0.049261052 -0.008922963 -0.03717567

fc3.weight f4 [2, 256]
00000000: bc3a 3dbd aab9 bf3c 33fe 8c3c bd97 e0bc
00000010: d389 af3c 13cf af3c 0090 ec3b 5cc9 a43c
00000020: b765 ccbc 6a07 273d 5529 933c b514 e9bc
00000030: 0a60 2cbd a568 98bc 0c69 bf3c d6ff 6dbd
00000040: 3d88 c2bb d82e e0bc 8f70 86bc 8b8f c3bc
00000050: fe15 b1bc d450 a83c 7c3b c93c 724f 0cbd
00000060: 96f2 1abd 6cb3 4ebd c145 ddbc 6e86 5a3d
00000070: f518 c7bc 83b9 783c e91f f7b9 28f4 893d
00000080: 2387 1cbd a3f0 b83c 516f 863c a6cd 453b
00000090: e9e8 05bb 8fdd cfbc 89c7 aebc 0bd0 6bbc
000000a0: 2f14 d7bb d251 973c 1409 b0bc 796b 8d3d
000000b0: 8dda ac3c 52c9 183a d54a 27bd 3d8b 903c
000000c0: 75eb 0d3d 7d3c e2bc 380f 67bc 9e60 e9bc
000000d0: 0e82 f5bc 42e5 a03c d430 713d 700b 1b3d
000000e0: 56e6 f6bc ef59 d0bc 74fc edbc 65e3 c33c
000000f0: 1905 8b3c 31ab 883d 78e2 933b f9e5 09bd
00000100: 219c d8bc cb7a ab3b 19d7 2abd 2ad5 2a3c
00000110: 13e7 093c ed94 68bc c7ec 9dbc e1aa 7ebc
00000120: e2d2 8cbd a609 b23c a028 d23c 3c04 30bd
00000130: 4eac 81bc 77d3 01bc 8f20 83bc 386b 53bd
00000140: 9616 9ebd add0 a8bc 24c9 fb3b 9448 703c
00000150: 696c 693c 17eb 40bd 2acd 11bd 27b4 3fbb
00000160: 70e6 24bd 0c03 92bc ef1b 10bd 76c7 ccbc
00000170: c4a9 97bd 3fc0 f6bb 36fd 4f3c 02d8 01bd
00000180: c543 833c 4f08 b13c 4142 413c de9e bdbc
00000190: 4e8f da3c 10f1 063d cee5 29ba 137c 81bc
000001a0: 6398 bbbc 6d7e d9bc 32ac e53c 9735 adbc
000001b0: cdf1 06bd cac5 163c 8847 0ebd 8a92 863d
000001c0: 0243 893d 7061 853c 6201 d23c df72 03bd
000001d0: dca2 d5bc f903 72bd 75ae 013d 9949 1fbc
000001e0: 526e 5a3c c11f d33c 5e0e 58bc 0e57 e2bc
000001f0: 0148 b6bc 8bb4 6bbc 4fa3 55bc 029c f13c
00000200: 72d7 a2bc 8537 2cbc d4e5 123c fc8a 1dbd
00000210: 128f 2b3d 2eb2 2fbd e429 4ebc a505 353d
00000220: 2dd8 fcbc 79f7 833c 592a 28bd c4ff 0fbd
00000230: fcd1 783c 448e d73c 0d53 bebc d315 0cbd
00000240: eadc af3c b08a 9dbc 2a67 f13c 9381 81bc
00000250: 0060 d0bc 5b0a 9cbc 1916 c9bb 0b25 4ebc
00000260: fea5 953c a1a3 d03c 4e11 c2bc fb79 d0bc
00000270: 0e79 14bd baad e93c 37b3 99bc e4f7 b4bc
00000280: ed2c 07bd ecbe 953c e39c 17bc 629b 6b3d
00000290: fb06 9c3c 03c3 83bc 3fa3 563c b82f b0bc
000002a0: 5c51 f8b8 0c12 99bc 6a4b 1dbc 1a56 f13c
000002b0: 3647 5f3c d5d8 84bc fbd8 f03c 8004 97bc
000002c0: a263 45bc 8b28 0abd 6576 cdbc 27f6 26bd
000002d0: c2b0 413b 0405 6ebc ee01 b6bc 95b4 65bc
000002e0: fe0b ad3c f140 a73c 5c1d c63c c968 223d
000002f0: 6b70 0bbd 9a7e 5f3d 32b7 e9bc 1c93 debc
00000300: fcdc 923c 2486 62bc 7d06 c83c 31bc 853b
00000310: 634d f43c 6e10 2fbd f45e c23c 788a 98bb
00000320: c5bd f9bc f383 0aba 3796 ef3c 1ad6 543d
00000330: 43ad d2bb abef c23c 31c1 f1bc da3d c5bc
00000340: c73a cd3b 3496 0e3c 12f2 d1bc b50f f0bc
00000350: c714 4c3c 2d1d a83c 3925 973c b998 0bbd
00000360: 815c 0d3d 34c2 b4bc f42e 9e3c ad07 403c
00000370: 47ed 2dbb 84fa 65bc a62a 9ebc 3571 6dbd
00000380: 6fec 39bc 098b 22bc 2638 2c3d fdd1 b63c
00000390: f558 973d f91f cdbc 59c6 263d ca48 17bc
000003a0: 8cd3 a63c c6af 0ebd c9c2 17bd 1319 12bd
000003b0: 1edb 693d 5f66 a7bc 3b0a 6dbc 6b4c 0dbd
000003c0: 2a94 7d3b 2f7c 8bbc c6a9 a8bc cf7b c5bc
000003d0: f9a0 f23c fac0 f3bc ccb3 1d3c 4126 bb3c
000003e0: c07b 843c 68bf 893c 75dc 993c 5673 12bc
000003f0: 0cdc 05bd 8717 18bd 52de 07bd e197 d53c
-0.04619859 0.023403961 0.017211055 -0.027416104 0.021428024 0.021461045 0.0072193146 0.020115547
-0.024950845 0.040778555 0.017964045 -0.028452257 -0.042083777 -0.018604586 0.02336552 -0.058105312
-0.005936651 -0.027366087 -0.016411094 -0.023872158 -0.021616932 0.020546354 0.024564497 -0.034255452
-0.037829004 -0.05046408 -0.0270108 0.05335086 -0.024303893 0.015180948 -0.00047135286 0.06736022
-0.038214814 0.022575682 0.016410502 0.003018239 -0.0020433015 -0.025374202 -0.02133538 -0.014392863
-0.0065636854 0.018471632 -0.021488704 0.069052644 0.021100307 0.0005828339 -0.04084285 0.017644519
0.034648377 -0.027616734 -0.0141027495 -0.028488453 -0.029969241 0.019640569 0.058884457 0.037852705
-0.03013913 -0.025433509 -0.029051043 0.023912141 0.016970204 0.06673277 0.004513081 -0.033666585
-0.026441636 0.005233144 -0.04170904 0.010426799 0.008416909 -0.014195663 -0.019277943 -0.01554367
-0.0687616 0.021733116 0.025654137 -0.04297279 -0.015829232 -0.007923952 -0.016006736 -0.051615924
-0.07719152 -0.020607317 0.00768389 0.0146657415 0.014247038 -0.0470992 -0.03559605 -0.0029251666
-0.040258825 -0.017823718 -0.03518289 -0.024997454 -0.07405427 -0.0075302417 0.012694648 -0.03170014
0.016023526 0.021610407 0.011795581 -0.023147043 0.026679661 0.03294474 -0.0006481082 -0.015806234
-0.022899812 -0.026549542 0.02803621 -0.021143718 -0.032945443 0.00920243 -0.034736186 0.06570919
0.06702234 0.016281813 0.025635425 -0.03209197 -0.026078634 -0.05908582 0.031660516 -0.009722137
0.0133319665 0.025771977 -0.013187019 -0.027629402 -0.022251131 -0.0143863065 -0.013039424 0.029493336
-0.019878123 -0.010511284 0.008965928 -0.038462624 0.04188449 -0.042894535 -0.01258323 0.044194836
-0.0308648 0.016109215 -0.04105601 -0.035156026 0.015186783 0.026312955 -0.023232961 -0.0342005
0.021467645 -0.01923117 0.029468138 -0.015808856 -0.025436401 -0.019047907 -0.0061366674 -0.012582074
0.018267628 0.02546865 -0.023689892 -0.02544879 -0.03624826 0.028525222 -0.018762214 -0.02209086
-0.03300183 0.018279515 -0.009253713 0.05752123 0.019046297 -0.0160842 0.013100444 -0.02150713
-0.00011840716 -0.018685363 -0.0096005 0.029460002 0.013627818 -0.016216675 0.02940034 -0.018434763
-0.01204768 -0.03373007 -0.025080869 -0.040762093 0.0029554819 -0.014527563 -0.022217717 -0.014020105
0.021123882 0.020416709 0.024183922 0.039650712 -0.034042757 0.054564096 -0.028529737 -0.027169757
0.01792764 -0.013825927 0.024417156 0.004081272 0.029822057 -0.042740278 0.023726918 -0.0046551786
-0.030485997 -0.0005283944 0.029246433 0.051961996 -0.006429346 0.023795923 -0.029511066 -0.024077345
0.0062631103 0.008702803 -0.025628123 -0.029304365 0.012456126 0.020521725 0.018450366 -0.034081195
0.034512047 -0.02206526 0.019309498 0.01172058 -0.0026539133 -0.014036778 -0.019307446 -0.05796929
-0.011347874 -0.009920844 0.042045735 0.022316927 0.07390014 -0.02503966 0.040716503 -0.009233663
0.020364545 -0.0348356 -0.037050996 -0.035668444 0.057093732 -0.020434557 -0.014467771 -0.034496706
0.003869305 -0.017026989 -0.020588767 -0.024106888 0.029617773 -0.029755104 0.009625386 0.02284539
0.01617229 0.016814902 0.01878188 -0.008938631 -0.032680556 -0.037131812 -0.033171006 0.026073398

fc3.bias f4 [2]
00000000: dbf6 093d 0b2f da3c
0.033682685 0.02663376
